HousePrice.pt (torch, 43490 bytes, 21 tensors)

weight f4 [15, 8]
0.2934884 -0.026971225 0.02884409 -0.038051195 0.015199941 0.052524496 0.019348646 -0.13537702
0.51683545 0.6512224 -0.12743571 1.0852088 0.2806606 0.20027773 -0.019940183 0.22511636
-1.6902153 -0.62609947 -0.2551318 -0.5012593 -1.1724085 0.23316418 1.4336647 1.3321264
-0.37931296 -0.46727198 -0.14534366 -0.618882 -0.51229334 -0.2036586 1.6974313 1.1823907
-0.3944013 0.2568339 -0.5830902 -0.7957618 -0.0022006058 0.13367565 0.8791686 -1.2575661
0.009807713 0.04646964 -0.04639929 0.017691731 0.019776337 0.030540034 0.04419261 0.0650338
-0.8688597 -0.89459604 0.1124704 2.1593325 -0.20127551 -0.37623775 -0.49246946 0.06946246
0.31623462 -0.18567726 0.35819793 -1.61322 -0.38686776 -0.5911411 -0.27356595 0.56595594
0.8537602 -0.18997113 -0.14184041 0.121048525 -0.046332132 -0.1412019 -0.042990755 -0.07966317
0.44331545 -0.3849297 -0.2888368 0.3616312 -0.33531737 -0.49728885 0.6922286 -0.38233823
1.0414022 1.7046661 -4.576563 -0.031367984 0.90760463 1.0159467 3.3299205 -1.3989042
-0.07486849 -0.3527324 0.037533395 0.0992488 -0.5328421 -0.57706654 -0.09159746 0.14132963
0.011716692 -0.0029017637 -0.75034994 -0.28100142 -0.19744174 -0.0809167 0.16176462 -2.1204908
-0.17272824 1.5432514 -1.4801213 -0.107395 0.16812237 0.7248195 0.15314616 -0.3733534
0.16522472 0.47380838 -3.020875 0.76379657 0.36269078 0.4705596 1.285131 0.17376341
00000000: 1d44 963e c2f2 dcbc 714a ec3c 92db 1bbd
00000010: 2c09 793c ed23 573d 0d81 9e3c 46a0 0abe
00000020: 544f 043f 83b6 263f 827e 02be 1fe8 8a3f
00000030: bfb2 8f3e 9b15 4d3e 9859 a3bc e784 663e
00000040: fa58 d8bf 0e48 20bf a3a0 82be 8852 00bf
00000050: 7b11 96bf 97c2 6e3e 5382 b73f 1e83 aa3f
00000060: 4f35 c2be 463e efbe f8d4 14be 0d6f 1ebf
00000070: a825 03bf e18b 50be 6e45 d93f 9458 973f
00000080: f8ee c9be bc7f 833e 6645 15bf 0cb7 4bbf
00000090: 0a38 10bb 45e2 083e 3211 613f edf7 a0bf
000000a0: 88b0 203c f356 3e3d 2f0d 3ebd 40ee 903c
000000b0: fc01 a23c 182f fa3c 4f03 353d 7130 853d
000000c0: 976d 5ebf 3f04 65bf e256 e63d 8132 0a40
000000d0: 2b1b 4ebe 3ca2 c0be f524 fcbe 5642 8e3d
000000e0: 81e9 a13e 2e22 3ebe b865 b73e fe7d cebf
000000f0: 8813 c6be 0655 17bf d610 8cbe 7de2 103f
00000100: 0790 5a3f cb87 42be 9d3e 11be 4ae8 f73d
00000110: c3c6 3dbd 3b97 10be 1317 30bd 7226 a3bd
00000120: 3efa e23e 8115 c5be 6be2 93be ba27 b93e
00000130: b8ae abbe a59c febe e535 313f d6c1 c3be
00000140: ab4c 853f 8032 da3f 3473 92c0 b77b 00bd
00000150: c758 683f 8b0a 823f 6b1d 5540 4b0f b3bf
00000160: a754 99bd 5799 b4be 9ebc 193d f442 cb3d
00000170: 5768 08bf a2ba 13bf 7397 bbbd b7b8 103e
00000180: 5ef7 3f3c 842b 3ebb ef16 40bf 6bdf 8fbe
00000190: 2b2e 4abe a8b7 a5bd a0a5 253e 1fb6 07c0
000001a0: acdf 30be 4389 c53f 9d74 bdbf e9f1 dbbd
000001b0: 4528 2c3e c58d 393f 59d2 1c3e 2d28 bfbe
000001c0: ab30 293e 0397 f23e 0456 41c0 2c88 433f
000001d0: 9bb2 b93e 30ed f03e 2c7f a43f 09ef 313e

weight f4 [5, 3]
2.7289722 1.0971533 1.0988429 -0.3944127 -0.8306194 -0.04365061 -0.35591114 0.34279528
0.49904397 -0.01695041 0.039380178 0.0066557936 0.49587685 0.071466625 -0.9557747
00000000: 7ba7 2e40 856f 8c3f e2a6 8c3f 76f0 c9be
00000010: 79a3 54bf fbca 32bd fc39 b6be dd82 af3e
00000020: b182 ff3e 96db 8abc 1c4d 213d d818 da3b
00000030: 92e3 fd3e 185d 923d a7ad 74bf

weight f4 [2, 1]
2.6341307 0.027707417
00000000: 9995 2840 aafa e23c

weight f4 [4, 2]
0.18485844 -0.16787674 0.15927999 -0.11406594 -3.2168436 0.06259296 -0.47394317 0.5511503
00000000: 884b 3d3e e1e7 2bbe 4b1a 233e 679b e9bd
00000010: c4e0 4dc0 bd30 803d aea8 f2be 3018 0d3f

weight f4 [5]
0.55853564 0.59490377 1.2740804 0.96782535 2.0741665
00000000: 31fc 0e3f 9d4b 183f 1115 a33f 67c3 773f
00000010: 25bf 0440

bias f4 [5]
0.06930596 -0.7074693 -1.6938351 -0.8264872 2.0443401
00000000: 48f0 8d3d b51c 35bf 97cf d8bf aa94 53bf
00000010: 78d6 0240

running_mean f4 [5]
70.080826 9977.888 1158.0859 343.58707 54.377277
00000000: 6229 8c42 8de7 1b46 c0c2 9044 25cb ab43
00000010: 5582 5942

running_var f4 [5]
579.8442 6.483359e+07 146595.55 188871.0 1001.55566
00000000: 07f6 1044 0e52 774c e328 0f48 c071 3848
00000010: 9063 7a44

weight f4 [100, 19]
-0.6351496 -0.7464101 1.8389702 0.24481803 0.6434836 0.31073153 -0.9628882 0.92712575
-0.6732011 0.38324878 0.8120075 0.014419856 -0.33141783 0.3479292 -0.7162837 0.12052891
0.8871776 0.7071161 -1.139154 0.6442196 0.036133394 -0.2873135 -0.29650894 0.83348596
0.3492771 -0.062458795 0.18164748 1.4247755 0.5025126 -1.3012199 0.28185368 0.120144516
0.42578045 -0.5753136 0.08995432 -2.377045 -2.2074606 0.023709247 -0.26720646 -0.3222276
0.47536668 0.0012462804 -0.3958326 -1.3917216 -1.255588 0.6166634 -0.3635001 0.91330594
0.3314434 0.24115741 0.5730547 -0.5472163 1.283739 1.2597468 -2.7258718 -1.8949642
0.0679805 0.4029692 0.21528268 0.016407484 -0.18479648 0.74835044 0.28613782 -0.14235266
0.026081452 0.6626956 0.60582274 -0.57087183 0.7102313 0.19673756 -0.25490186 0.2866165
-3.4066515 -1.5599853 -1.6448916 0.68953604 0.47714987 0.7460538 -0.38619205 -0.327585
0.8890149 0.60678905 0.80629003 0.0990329 1.0871497 0.39804044 0.002847489 1.1396164
-0.11391064 0.35778183 0.5984181 -3.5549262 -1.0955663 -1.2992259 0.89142925 0.62487864
-0.13209014 0.09933523 0.0342497 -0.12533934 -0.11510709 -0.15464514 0.054152023 -0.10206747
0.11920845 0.014098686 -0.033711202 0.04924717 -0.034383267 -0.26466525 -3.778315 0.71835715
0.88869816 -0.44541752 -0.28501892 -0.123405755 -0.55478734 0.53873366 0.68463105 0.48969704
0.35342243 -0.79121614 0.58476037 0.7917025 -0.33463898 0.1707302 0.23373292 0.12827413
0.9123799 0.66308373 -1.8935251 -2.6659186 0.6996591 0.041965958 -0.33529133 -0.010666338
0.055209074 -0.19176118 -0.284357 -0.11146448 0.29779884 -0.21770936 0.068824716 -0.740117
0.07730439 -0.4924625 0.55321544 0.2632236 0.786897 1.1720002 0.5689265 -4.3937044
0.0761514 1.286623 -0.5694182 0.15660703 0.783189 0.9986625 0.9909861 -0.35491276
0.74123067 -0.071007766 -0.096060984 0.55782044 -0.504516 0.29835796 1.0107168 -3.289405
-0.9690958 -1.433236 0.72263414 0.5677514 0.46134195 -0.08440266 0.885462 0.8613567
0.51232904 0.06633499 0.03252749 0.22336988 0.9640181 -0.28331003 0.83018744 -0.24245736
0.46683204 0.92956007 -1.1072819 1.2049627 1.0593523 -3.125624 0.82338256 0.71311706
-0.10023287 0.7410433 0.75091505 0.9676394 0.39207143 0.15669821 0.220681 0.0740614
-0.29856747 -0.648474 -0.39038116 0.19842672 0.62239 -1.1040368 0.9664705 0.89752966
-4.4912853 -0.06543168 0.834807 1.0099221 2.4367595 0.8615301 0.053964328 -0.68394434
0.83178437 -0.2180349 -0.22579414 -0.37720817 0.101451404 -0.64791906 0.7518577 0.43796542
0.48157698 0.90225434 0.2501765 -1.5141469 0.47635204 0.08049519 -0.045252107 0.02754858
0.28009012 -0.2733049 -0.17917897 -0.3301997 0.47775605 0.9263809 -0.6344273 1.0583745
0.27746546 -0.24845743 -0.16062441 -0.8656047 -2.1969013 -2.3130841 0.795826 0.123852834
0.4489161 -0.13291545 -0.034350347 0.3315944 0.10217715 -0.1168891 0.23608768 0.49135447
00000000: 2a99 22bf bb14 3fbf 6063 eb3f 94b1 7a3e
00000010: 57bb 243f 3418 9f3e d77f 76bf 1d58 6d3f
00000020: e856 2cbf 2f39 c43e b9df 4f3f 4241 6c3c
00000030: 99af a9be c723 b23e 5e5e 37bf dcd7 f63d
00000040: 121e 633f 9005 353f cccf 91bf 93eb 243f
00000050: 9c00 143d c11a 93be 05d0 97be 565f 553f
00000060: 73d4 b23e cbd4 7fbd cc01 3a3e 0b5f b63f
00000070: aaa4 003f 608e a6bf 204f 903e 540e f63d
00000080: e5ff d93e c147 13bf f839 b83d 8121 18c0
00000090: 0947 0dc0 e539 c23c 49cf 88be 04fb a4be
000000a0: 4363 f33e 3b5a a33a 92aa cabe ef23 b2bf
000000b0: 1cb7 a0bf a7dd 1d3f af1c babe 6bce 693f
000000c0: f3b2 a93e f8f1 763e b6b3 123f 5e16 0cbf
000000d0: 8f51 a43f 623f a13f af74 2ec0 308e f2bf
000000e0: 5c39 8b3d fb51 ce3e 1073 5c3e fd68 863c
000000f0: 4a3b 3dbe e593 3f3f a880 923e e5c4 11be
00000100: c5a8 d53c 6ba6 293f 3317 1b3f a824 12bf
00000110: b8d1 353f 9275 493e 7f82 82be 66bf 923e
00000120: 9406 5ac0 99ad c7bf cf8b d2bf 6f85 303f
00000130: fd4c f43e 62fd 3e3f f7ba c5be 39b9 a7be
00000140: 7b96 633f 8756 1b3f 0669 4e3f c3d1 ca3d
00000150: b927 8b3f f5cb cb3e f09c 3a3b f3de 913f
00000160: fb49 e9bd 2e2f b73e ee31 193f e983 63c0
00000170: 843b 8cbf 094d a6bf b534 643f 0cf8 1f3f
00000180: a342 07be 4570 cb3d 6a49 0c3d f558 00be
00000190: 44bd ebbd 4c5b 1ebe 83ce 5d3d c008 d1bd
000001a0: 8f23 f43d 2dfe 663c c214 0abd 67b7 493d
000001b0: 78d5 0cbd 3482 87be eacf 71c0 41e6 373f
000001c0: b981 633f c40d e4be 00ee 91be 28bc fcbd
000001d0: 8b06 0ebf 73ea 093f fb43 2f3f 92b9 fa3e
000001e0: c9f3 b43e 248d 4abf dbb2 153f 04ad 4a3f
000001f0: cd55 abbe e6d3 2e3e af57 6f3e 4b5a 033e
00000200: bb91 693f dbbf 293f 085f f2bf 699e 2ac0
00000210: dc1c 333f 7fe4 2b3d 4eab abbe ddc1 2ebc
00000220: e922 623d 0b5d 44be 3e97 91be 7d47 e4bd
00000230: 1779 983e 34ef 5ebe f9f3 8c3d 4f78 3dbf
00000240: c451 9e3d 0b24 fcbe 879f 0d3f 3ec5 863e
00000250: 1572 493f 1a04 963f 2ba5 113f 3a99 8cc0
00000260: 44f5 9b3d 10b0 a43f 64c5 11bf 985d 203e
00000270: 137f 483f 58a8 7f3f 44b1 7d3f 20b7 b5be
00000280: 4bc1 3d3f 856c 91bd 9fbb c4bd 52cd 0e3f
00000290: f627 01bf 60c2 983e 2b5f 813f 9d85 52c0
000002a0: aa16 78bf 4774 b7bf 8dfe 383f 2858 113f
000002b0: 0335 ec3e 4ddb acbd a3ad 623f df81 5c3f
000002c0: ff27 033f a4da 873d 8c3b 053d 13bb 643e
000002d0: e4c9 763f 030e 91be 2a87 543f be46 78be
000002e0: 9c04 ef3e a6f7 6d3f 6abb 8dbf 383c 9a3f
000002f0: db98 873f 390a 48c0 33c9 523f d78e 363f
00000300: e446 cdbd 04b5 3d3f f83b 403f 37b7 773f
00000310: 96bd c83e 7f75 203e 33fa 613e 81ad 973d
00000320: d6dd 98be 6402 26bf 0ae0 c7be 6030 4b3e
00000330: f354 1f3f 1451 8dbf 9c6a 773f 81c4 653f
00000340: 9cb8 8fc0 0b01 86bd e9b5 553f 2145 813f
00000350: def3 1b40 3d8d 5c3f b309 5d3d fa16 2fbf
00000360: d2ef 543f 8a44 5fbe 9436 67be 6e21 c1be
00000370: c1c5 cf3d 06de 25bf bf79 403f 013d e03e
00000380: 4291 f63e 24fa 663f 2217 803e 91cf c1bf
00000390: 6ae4 f33e aada a43d 465a 39bd 8fad e13c
000003a0: f967 8f3e 9fee 8bbe b17a 37be ef0f a9be
000003b0: 719c f43e 4c27 6d3f d469 22bf d178 873f
000003c0: f40f 8e3e a06b 7ebe ba7a 24be 4598 5dbf
000003d0: 089a 0cc0 9209 14c0 41bb 4b3f 8ea6 fd3d
000003e0: 55d8 e53e fd1a 08be f3b2 0cbd bec6 a93e
000003f0: 4142 d13d 8d63 efbd f8c0 713e d092 fb3e

bias f4 [100]
3.6125283 -1.6463588 -1.1632102 5.3525486 5.522185 -2.751221 -0.4163557 -0.64415973
4.9629817 1.0709735 0.4908646 2.2759936 1.7584641 7.216361 2.9304168 2.9517527
1.1083647 -1.9311651 -1.1985798 -2.0648081 2.4583552 -1.6059906 -3.865785 -2.9375026
-1.5885946 -2.0901694 -1.9951338 0.8152902 -2.6633306 -3.0859497 5.531395 -2.4557924
1.3883067 7.4654117 3.2273262 -4.241974 0.5615471 -2.46172 -2.0335135 4.764891
2.7229702 6.7678175 -1.9736649 6.03831 -0.2630529 0.12207318 5.0786304 6.8050947
5.737517 6.316335 -2.5703418 -1.6609545 -1.5086863 5.277266 5.6438537 -2.629882
-3.9755423 2.7042098 -0.14388105 -1.9626046 7.624253 3.97569 -2.25551 -2.0748467
-2.8937423 7.337249 0.5874042 1.7974868 2.5395372 3.4428978 2.6255097 5.8736057
-1.9222938 6.1802354 -2.1625018 3.2697182 -0.52147454 -0.79394484 -1.5574905 0.5133134
-1.8594992 -0.89354455 -2.1560183 0.99555206 2.503624 -5.321189 0.5419991 5.97848
1.011227 6.98322 0.17630497 6.007351 -0.6398015 -2.1375954 -0.7978029 0.3530125
6.369168 -2.431044 -2.789768 5.7564616
00000000: aa33 6740 e3bb d2bf 12e4 94bf 1448 ab40
00000010: bdb5 b040 0114 30c0 932c d5be a7e7 24bf
00000020: bfd0 9e40 a915 893f 9b52 fb3e e1a9 1140
00000030: 5a15 e13f 6eec e640 f38b 3b40 84e9 3c40
00000040: e5de 8d3f 6b30 f7bf 106b 99bf d125 04c0
00000050: b155 1d40 1a91 cdbf 0569 77c0 0b00 3cc0
00000060: 1157 cbbf 56c5 05c0 8b60 ffbf dcb6 503f
00000070: 0274 2ac0 3380 45c0 3001 b140 b42b 1dc0
00000080: 09b4 b13f a7e4 ee40 838c 4e40 40be 87c0
00000090: 8dc1 0f3f d28c 1dc0 1625 02c0 fd79 9840
000000a0: 2545 2e40 f691 d840 0da1 fcbf d639 c140
000000b0: dfae 86be 8101 fa3d 2484 a240 56c3 d940
000000c0: bd99 b740 6b1f ca40 7b80 24c0 289a d4bf
000000d0: a21c c1bf 5ddf a840 739a b440 fd4f 28c0
000000e0: 496f 7ec0 c611 2d40 8e55 13be a136 fbbf
000000f0: e1f9 f340 b471 7e40 475a 10c0 4aca 04c0
00000100: 1333 39c0 beca ea40 1f60 163f 0c14 e63f
00000110: c787 2240 7058 5c40 5a08 2840 94f4 bb40
00000120: b90d f6bf 7dc4 c540 6e66 0ac0 1043 5140
00000130: 5b7f 05bf f83f 4bbf d95b c7bf 8268 033f
00000140: 1204 eebf 56bf 64bf 34fc 09c0 80dc 7e3f
00000150: 603b 2040 2e47 aac0 74c0 0a3f b54f bf40
00000160: e36f 813f 8a76 df40 4a89 343e 383c c040
00000170: 08ca 23bf 5dce 08c0 d03c 4cbf 0ebe b43e
00000180: 39d0 cb40 3a96 1bc0 8f8b 32c0 ef34 b840

weight f4 [100]
0.2454117 0.331064 0.4514583 0.3117956 0.25494382 0.35915384 0.26031855 0.9461254
0.24492815 0.33534372 -0.29286656 -0.34624735 0.27993923 0.23928085 0.45489243 0.3521423
-0.44448605 1.4528632 0.3669291 1.7021718 0.2872423 -0.08796304 0.4506434 0.8728785
0.31851444 0.2649884 0.49166244 0.35313863 0.28564847 0.44317347 0.28057513 0.4329399
0.29560143 0.21506515 0.21065855 0.35459492 0.6024498 -0.3856318 0.99675894 0.3189982
0.2875964 0.309044 0.64143515 -0.28553528 0.76330626 0.4638029 0.31418988 0.29440498
0.23628838 0.25623035 1.3973794 1.2595357 0.29272127 0.3478895 0.29249835 0.27159896
0.32631892 0.5137804 0.44030938 0.6619596 -0.23222834 0.28739154 1.6360358 1.2916266
0.11903824 0.22785445 0.35727003 0.25432137 0.44992286 0.2464334 0.23842733 0.27582312
1.5003166 0.23915578 0.47588024 0.2774513 0.3843861 0.54480624 0.46342587 0.2926454
0.6226414 0.38170338 0.7340996 0.3797316 0.20583726 -0.33005163 0.30631185 0.34752747
0.6462333 0.19885091 -0.23714694 0.31533194 0.2836803 0.7243874 0.32171395 0.67715424
0.297255 0.04301985 -0.13539472 0.30925757
00000000: 344d 7b3e 3881 a93e 8b25 e73e aca3 9f3e
00000010: ff87 823e 03e3 b73e 7948 853e 4635 723f
00000020: 72ce 7a3e 2cb2 ab3e 9bf2 95be 5547 b1be
00000030: 3254 8f3e 0a06 753e a9e7 e83e ff4b b43e
00000040: ad93 e3be 6cf7 b93f 22de bb3e c4e0 d93f
00000050: 6c11 933e f725 b4bd bbba e63e f774 5f3f
00000060: 5314 a33e 8fac 873e 2ebb fb3e 96ce b43e
00000070: 8440 923e a2e7 e23e 8ba7 8f3e 4caa dd3e
00000080: 1259 973e 0a3a 5c3e e0b6 573e 778d b53e
00000090: 263a 1a3f 8871 c5be 982b 7f3f bb53 a33e
000000a0: d63f 933e 043b 9e3e 1835 243f ae31 92be
000000b0: 0a68 433f 9377 ed3e 7fdd a03e 40bc 963e
000000c0: 95f5 713e a030 833e 54dd b23f 7738 a13f
000000d0: 90df 953e 931e b23e 58c2 953e 050f 8b3e
000000e0: 4613 a73e 1d87 033f 3b70 e13e 2f76 293f
000000f0: 44cd 6dbe fc24 933e 9f69 d13f 0554 a53f
00000100: 52ca f33d ad52 693e 19ec b63e 6936 823e
00000110: 4a5c e63e 0a59 7c3e 4b26 743e b038 8d3e
00000120: 600a c03f 41e5 743e 93a6 f33e 190e 8e3e
00000130: 41ce c43e 6c78 0b3f 2846 ed3e 9ed5 953e
00000140: 6d65 1f3f a06e c33e f4ed 3b3f 2e6c c23e
00000150: 01c7 523e 87fc a8be e8d4 9c3e 1fef b13e
00000160: 8c6f 253f 939f 4b3e a6d6 72be 3073 a13e
00000170: 8b3e 913e 7471 393f b1b7 a43e fb59 2d3f
00000180: cf31 983e 9535 303d eaa4 0abe 0257 9e3e

bias f4 [100]
0.030200452 0.09839159 0.283516 0.0027935042 0.2502334 0.021833558 0.19141456 0.16040586
0.16223767 0.07608785 -0.043670446 -0.06360386 -0.107922986 -0.039990727 0.11886538 0.10907665
-0.048956163 0.039275575 0.23270728 0.053613026 0.046892866 -0.06803744 0.020661771 0.14943837
0.21770054 0.04464836 -0.116362855 0.08014145 -0.021231545 0.11097007 0.08856815 0.091154695
-0.070559934 -0.03146295 -0.021690538 0.075546965 0.044129606 -0.019444056 0.067619756 0.1726101
0.050225448 0.15621638 -0.084828995 -0.13478369 0.099313974 0.23530933 0.20128258 0.12906738
0.023776585 0.13513096 -0.011092293 0.078300156 -0.014737585 0.16120398 0.20295821 -0.011063318
0.036376126 0.14526027 0.3297982 0.03693273 -0.07916924 0.012324562 -0.07323353 -0.016336638
0.028658742 0.11361426 0.011798387 -0.015515144 0.16300982 -0.049358208 0.027254827 0.19005549
-0.015959363 0.050319083 0.10572002 0.024699548 0.24167383 0.5328684 0.005386523 0.059992507
-0.05846015 -0.023372747 0.01072523 0.06699084 0.12728773 0.0066818153 0.0012699447 0.18225016
0.20981398 0.110793985 0.029456388 0.11917528 0.27036667 0.028880116 0.28388005 0.23654343
0.060942616 -0.017323382 -0.046191536 0.15370966
00000000: f066 f73c 8881 c93d 0229 913e 3913 373b
00000010: 981e 803e 4adc b23c 2e02 443e 6f41 243e
00000020: a221 263e f2d3 9b3d c8df 32bd be42 82bd
00000030: ba06 ddbd 51cd 23bd b16f f33d 9463 df3d
00000040: 4286 48bd 6ddf 203d d14a 6e3e 5599 5b3d
00000050: bc12 403d 3757 8bbd e042 a93c 5f06 193e
00000060: e4ec 5e3e 33e1 363d a64f eebd 3321 a43d
00000070: c7ed adbc 4744 e33d 3863 b53d 50af ba3d
00000080: ba81 90bd 4bdf 00bd 5bb0 b1bc 5eb8 9a3d
00000090: 3fc1 343d 2449 9fbc 3a7c 8a3d b4c0 303e
000000a0: 33b9 4d3d 30f7 1f3e d3ba adbd bc04 0abe
000000b0: 2065 cb3d eef4 703e 051d 4e3e 3d2a 043e
000000c0: 1dc7 c23c c55f 0a3e 73bc 35bc d55b a03d
000000d0: e975 71bc a812 253e 47d4 4f3e eb42 35bc
000000e0: 22ff 143d 1cbf 143e 4fdb a83e c646 173d
000000f0: 7c23 a2bd f6ec 493c 76fb 95bd 6ad4 85bc
00000100: bdc5 ea3c 98ae e83d 064e 413c 3b33 7ebc
00000110: 0cec 263e d52b 4abd 8445 df3c e89d 423e
00000120: 36bd 82bc 621b 4e3d bd83 d83d b556 ca3c
00000130: 5879 773e 106a 083f 6e81 b03b b4ba 753d
00000140: e973 6fbd 3478 bfbc e0b8 2f3c 7e32 893d
00000150: b757 023e 21f3 da3b 4674 a63a c99f 3a3e
00000160: 7ad9 563e f5e7 e23d 864e f13c 2b12 f43d
00000170: 806d 8a3e fe95 ec3c ba58 913e 7138 723e
00000180: f79e 793d c4e9 8dbc 5633 3dbd 1166 1d3e

running_mean f4 [100]
0.74917203 5.032015 3.7356067 13.3947735 13.673145 0.013893515 6.7519345 0.06851703
12.804417 0.323178 0.28180578 0.51343465 9.901231 13.4477625 0.30069375 0.42946264
0.19439143 0.0083548 3.4256892 0.0011659829 0.18019694 6e-45 0.011760544 0.19005103
4.886564 6e-45 6e-45 0.21655987 6e-45 0.3719807 13.343292 1.0499439
8.90615 13.453777 0.5423493 0.068702415 0.14588055 0.0051881513 0.02431602 12.666262
0.2432318 12.9278145 6e-45 13.02787 0.07506325 5.016311 12.930618 13.407098
13.647913 12.781541 0.0017308096 0.0088113 0.09502624 12.775891 13.053853 2.3440502
0.4293639 0.33305404 4.597376 0.02649717 14.076948 0.9773097 0.0012735088 0.00090813456
6e-45 13.865759 0.1847171 0.7248373 0.26607782 11.384807 0.20580894 13.495529
0.00084153673 13.912205 0.06377058 0.581135 5.340726 5.362426 0.009726211 0.2632317
6e-45 0.066739485 0.0028030486 0.3405564 9.671952 0.029145557 1.1771736 13.558817
1.4197346 13.2738085 0.28976887 13.851278 6.378081 0.025556382 4.9923377 1.032588
12.888545 6e-45 0.0120374225 13.312519
00000000: bdc9 3f3f 4406 a140 2e14 6f40 fe50 5641
00000010: 34c5 5a41 a0a1 633c d90f d840 a852 8c3d
00000020: e4de 4c41 9677 a53e d948 903e 7470 033f
00000030: 716b 1e41 092a 5741 88f4 993e 87e2 db3e
00000040: 8c0e 473e 92e2 083c 7e3e 5b40 e5d3 983a
00000050: 8c85 383e 0400 0000 4caf 403c bd9c 423e
00000060: bb5e 9c40 0400 0000 0400 0000 dfc1 5d3e
00000070: 0400 0000 4174 be3e 207e 5541 9064 863f
00000080: 977f 0e41 ac42 5741 67d7 0a3f dab3 8c3d
00000090: b661 153e 5e01 aa3b 6432 c73c 02a9 4a41
000000a0: c211 793e 54d8 4e41 0400 0000 2872 5041
000000b0: c3ba 993d 9f85 a040 d0e3 4e41 7983 5641
000000c0: da5d 5a41 3181 4c41 55dc e23a 455d 103c
000000d0: 1e9d c23d 0d6a 4c41 95dc 5041 eb04 1640
000000e0: 96d5 db3e 0f86 aa3e b41d 9340 9810 d93c
000000f0: 2e3b 6141 f830 7a3f ddeb a63a e10f 6e3a
00000100: 0400 0000 26da 5d41 7b26 3d3e f08e 393f
00000110: 5a3b 883e 2b28 3641 94bf 523e b0ed 5741
00000120: 939a 5c3a 6498 5e41 269a 823d 43c5 143f
00000130: 3ae7 aa40 fe98 ab40 b05a 1f3c 4ec6 863e
00000140: 0400 0000 b6ae 883d 5ab3 373b 695d ae3e
00000150: 51c0 1a41 aac2 ee3c a0ad 963f eaf0 5841
00000160: ddb9 b53f 8561 5441 965c 943e d69e 5d41
00000170: 3d19 cc40 9e5b d13c 3bc1 9f40 d82b 843f
00000180: 7b37 4e41 0400 0000 9c38 453c 1400 5541

running_var f4 [100]
1.3866345 11.050097 7.194839 13.578234 16.371069 0.011037377 14.502299 0.3604853
17.13182 0.92350984 0.6649404 1.3010408 17.245605 9.675892 0.80303496 1.0479351
0.8819802 0.036840245 6.7569647 0.00095798116 0.6911755 6e-45 0.030580495 0.6555955
13.094803 6e-45 6e-45 0.91745514 6e-45 0.70281005 15.18642 4.4536815
15.511951 10.143683 0.910217 0.08090915 1.0601702 0.005336155 0.11234019 16.133549
0.9545095 12.211897 6e-45 16.636597 0.4239298 13.053778 16.573912 13.663529
14.007919 13.445441 0.0033450355 0.020989636 0.27217138 16.62288 9.507968 6.352555
0.7448948 0.9349082 11.857891 0.14468889 10.055437 1.7992153 0.0018599876 0.0009399578
6e-45 13.925105 0.942606 1.5914937 0.71395546 13.9190445 0.6900905 12.560848
0.0007929242 10.821718 0.11187839 1.0569321 10.139981 15.586019 0.017409401 0.5650507
6e-45 0.26100796 0.0030552233 0.8907756 16.908798 0.02207252 3.088832 9.686485
5.5276957 11.019284 1.0093491 13.162376 12.545783 0.13098107 9.442366 2.9537013
11.504232 6e-45 0.03985079 13.251471
00000000: 3d7d b13f 33cd 3041 1f3c e640 7240 5941
00000010: f3f7 8241 1dd6 343c 6b09 6841 8791 b83e
00000020: f80d 8941 246b 6c3f 8939 2a3f 8188 a63f
00000030: 00f7 8941 74d0 1a41 b393 4d3f bd22 863f
00000040: 74c9 613f cce5 163d 0e39 d840 0721 7b3a
00000050: e1f0 303f 0400 0000 f283 fa3c 1bd5 273f
00000060: 5084 5141 0400 0000 0400 0000 57de 6a3f
00000070: 0400 0000 5ceb 333f 94fb 7241 8f84 8e40
00000080: f430 7841 874c 2241 fb03 693f b2b3 a53d
00000090: a8b3 873f eada ae3b 9d12 e63d 8211 8141
000000a0: bc5a 743f ee63 4341 0400 0000 c017 8541
000000b0: 540d d93e 46dc 5041 5f97 8441 d19d 5a41
000000c0: 7020 6041 8720 5741 6238 5b3b 75f2 ab3c
000000d0: 0c5a 8b3e a9fb 8441 a320 1841 2148 cb40
000000e0: 6db1 3e3f 2556 6f3f ecb9 3d41 5329 143e
000000f0: 12e3 2041 b04c e63f d4ca f33a 8067 763a
00000100: 0400 0000 3bcd 5e41 a04e 713f 11b6 cb3f
00000110: c9c5 363f 68b4 5e41 c5a9 303f 3cf9 4841
00000120: 3edc 4f3a c225 2d41 7f20 e53d 8d49 873f
00000130: 5d3d 2241 5560 7941 299e 8e3c 2aa7 103f
00000140: 0400 0000 d6a2 853e 243a 483b df09 643f
00000150: 3845 8741 6ed1 b43c 6caf 4540 d8fb 1a41
00000160: e2e2 b040 fd4e 3041 5a32 813f 1899 5241
00000170: 87bb 4841 e71f 063e ee13 1741 7109 3d40
00000180: 5611 3841 0400 0000 953a 233d 0606 5441

weight f4 [50, 100]
-0.027594617 0.6348934 0.25001323 0.31569484 0.3797099 1.017047 -0.17328788 -2.5914161
-0.10395075 -0.64861166 0.553681 0.115063906 0.35394022 0.49836394 -0.22645831 -0.14405136
1.971121 -0.30277312 -0.1540141 -0.28976974 0.2658965 -0.6135138 -0.7852823 -0.13583298
0.19748877 -0.05687793 0.79707456 -1.8958611 -0.41886407 0.63374263 0.32105896 -0.038359765
0.19156004 -0.6370795 -0.19581193 -0.27878898 -1.2489847 0.0044671884 -2.175939 0.2201102
0.18825652 0.6638984 -0.9237554 -0.18813643 -2.9013968 0.2963324 -0.2703405 0.38270268
-0.24822085 -0.03738241 -1.554836 -0.66821724 -0.061348684 0.007599484 0.2169387 0.37103376
0.11109497 -0.102049805 0.041252587 -0.65755033 -0.009072202 0.16377422 0.44321045 -1.3751366
-0.8199328 -0.056695808 -2.2109654 -0.37048572 -0.43422562 -0.0074907104 -0.20455362 -0.12444383
0.32585475 0.12694235 -0.12772028 -0.1673898 0.6036287 0.61740863 0.25726873 -0.08755069
0.36179066 0.18250759 0.2309182 -0.58394414 -0.58234453 -0.6218818 -0.6603768 0.2359322
0.14288601 -0.31423098 -0.4048427 0.07644074 -0.07890063 -0.97527915 0.20951632 -0.3688237
0.06598928 -0.057786874 -0.28249627 0.1224292 0.95919955 -1.2968018 -1.0404354 0.10264412
-0.2551564 -0.05283476 -1.2262509 -0.12686032 -0.4814493 0.78030413 0.47961745 -0.4598485
1.0464079 -0.13043739 -2.4647918e-05 0.2197769 -0.26479328 -1.7590601 -0.7040693 -1.6770494
1.1815002 -0.23446862 0.8144418 -1.0214788 -1.335853 0.16929735 -0.7618114 0.07981008
1.0168505 -0.62871677 -0.6974378 -0.5237286 0.5730687 -0.27245572 -0.22152688 0.029137356
0.78960794 -0.070493996 0.612057 -1.1149315 0.8517659 -0.6602986 -0.87795615 0.5691126
-0.5165302 -1.223191 -0.71662056 -0.22941718 -0.38024873 -1.2176563 -1.77749 -0.6541753
-0.47700822 -1.1730733 -0.8101126 0.5981473 0.3305357 -0.02550157 -1.1383209 0.85267717
0.69697726 -0.8382489 -0.70364314 -2.310255 -0.0093044 -0.7810256 0.3868649 0.3861184
0.56654173 0.23019145 -0.47188163 -0.78978705 -1.9749849 -1.0908655 -3.4804072 0.5329023
-1.7777879 -1.4811878 0.7980781 0.051158212 -0.22688581 1.5801319 0.22609629 -0.010028802
-0.87696165 -0.9472834 -0.11859802 -1.6016219 -2.7959921 -0.17701061 -1.3917027 -0.94454414
-0.96184874 0.9645165 -0.70701927 -2.6261075 -1.1657267 -1.2605362 0.33815724 -1.0532559
-0.3705294 0.31301555 0.50413966 0.20326008 0.7613972 1.0361109 -0.21356797 -1.6455736
0.2980618 -0.35321274 -0.37395063 0.37109855 -0.022474844 -0.19109946 -0.6759942 -0.6825645
0.26306346 -1.1101704 0.357953 0.28289655 -0.5407313 -0.28910884 0.21182378 -0.07427907
0.07924627 0.07277244 0.0030417736 0.024514195 0.03840097 0.3045143 0.45621797 -0.040983103
0.043892764 0.7477967 0.08413512 -0.25801155 -0.8209456 0.8749386 -2.5327108 0.31554165
0.007910926 -0.2378711 -0.043447472 0.11041699 -0.25145826 -0.079990596 0.15800388 0.29482427
0.13529484 -0.42919868 -1.2515349 -1.2797433 0.16840883 0.06130774 0.20099254 0.29625776
00000000: 1b0e e2bc 6088 223f bc01 803e c1a2 a13e
00000010: 5669 c23e 992e 823f 6172 31be c3d9 25c0
00000020: 21e4 d4bd 6a0b 26bf 0abe 0d3f a0a6 eb3d
00000030: a737 b53e 8f29 ff3e b0e4 67be 3382 13be
00000040: b14d fc3f 1405 9bbe dfb5 1dbe b35c 94be
00000050: 9623 883e 3e0f 1dbf 4308 49bf cd17 0bbe
00000060: 7f3a 4a3e d5f8 68bd 140d 4c3f 94ab f2bf
00000070: 5a75 d6be f53c 223f d761 a43e 211f 1dbd
00000080: 5128 443e a417 23bf ec82 48be 6ebd 8ebe
00000090: bbde 9fbf 7e61 923b 9642 0bc0 9164 613e
000000a0: 51c6 403e 3ff5 293f 3c7b 6cbf d6a6 40be
000000b0: 7cb0 39c0 e1b8 973e 126a 8abe 9bf1 c33e
000000c0: 9b2d 7ebe 4c1e 19bd de04 c7bf 4910 2bbf
000000d0: c248 7bbd 1805 f93b 2e25 5e3e 23f8 bd3e
000000e0: c285 e33d 7dff d0bd 79f8 283d 3855 28bf
000000f0: 93a3 14bc 6eb4 273e 7bec e23e 7a04 b0bf
00000100: 1ee7 51bf dd39 68bd 7580 0dc0 4eb0 bdbe
00000110: d252 debe a274 f5bb 8176 51be 68dc febd
00000120: 6fd6 a63e 2dfd 013e 1bc9 02be 3b68 2bbe
00000130: 6987 1a3f 7e0e 1e3f bab8 833e c74d b3bd
00000140: a03c b93e 45e3 3a3e d275 6c3e 5d7d 15bf
00000150: 8814 15bf a533 1fbf 740e 29bf 3698 713e
00000160: b650 123e e2e2 a0be 8b47 cfbe f68c 9c3d
00000170: a796 a1bd e5ab 79bf 728b 563e 76d6 bcbe
00000180: 6325 873d eeb1 6cbd 5aa3 90be 29bc fa3d
00000190: 1a8e 753f 9afd a5bf fd2c 85bf 1537 d23d
000001a0: dca3 82be 4369 58bd caf5 9cbf ace7 01be
000001b0: 8680 f6be 03c2 473f 6b90 f53e 4371 ebbe
000001c0: b2f0 853f 6191 05be 00c3 ceb7 320d 613e
000001d0: fc92 87be e228 e1bf e33d 34bf 8ea9 d6bf
000001e0: 663b 973f 8b18 70be 427f 503f d1bf 82bf
000001f0: 3bfd aabf 495c 2d3e 1206 43bf 7873 a33d
00000200: 2828 823f 95f3 20bf 498b 32bf 1413 06bf
00000210: a1b4 123f 517f 8bbe f1d7 62be 77b1 ee3c
00000220: bf23 4a3f 285f 90bd c4af 1c3f 13b6 8ebf
00000230: 540d 5a3f 5409 29bf bcc1 60bf 5db1 113f
00000240: 533b 04bf 8691 9cbf 7274 37bf 56ec 6abe
00000250: f6af c2be 29dc 9bbf cb84 e3bf 0878 27bf
00000260: 6c3a f4be 4427 96bf 8a63 4fbf 2e20 193f
00000270: fa3b a93e abe8 d0bc 80b4 91bf 0d49 5a3f
00000280: 1a6d 323f 7b97 56bf f521 34bf 38db 13c0
00000290: 7b71 18bc 4bf1 47bf 2813 c63e 50b1 c53e
000002a0: e108 113f 4fb7 6b3e 789a f1be 7c2f 4abf
000002b0: 4ecc fcbf 7ba1 8bbf febe 5ec0 496c 083f
000002c0: 8e8e e3bf 9097 bdbf d94e 4c3f 468b 513d
000002d0: c154 68be c341 ca3f c985 673e d84f 24bc
000002e0: 8f80 60bf 2a81 72bf 85e3 f2bd f201 cdbf
000002f0: 89f1 32c0 4542 35be 5023 b2bf a5cd 71bf
00000300: b83b 76bf 8eea 763f 37ff 34bf 2512 28c0
00000310: 8836 95bf 4059 a1bf f222 ad3e 17d1 86bf
00000320: 08b6 bdbe 9343 a03e 4c0f 013f 6923 503e
00000330: edea 423f 489f 843f 90b1 5abe 28a2 d2bf
00000340: 8e9b 983e 4dd8 b4be 7576 bfbe a100 be3e
00000350: 2a1d b8bc 94af 43be f50d 2dbf 8cbc 2ebf
00000360: 41b0 863e 101a 8ebf 9e45 b73e d1d7 903e
00000370: 5e6d 0abf 1306 94be 55e8 583e a01f 98bd
00000380: de4b a23d b809 953d 7e58 473b fed1 c83c
00000390: 564a 1d3d 4ce9 9b3e 6795 e93e e6dd 27bd
000003a0: e6c8 333d 9b6f 3f3f 094f ac3d 171a 84be
000003b0: 7e29 52bf fafb 5f3f ef17 22c0 ad8e a13e
000003c0: d49c 013c 7b94 73be faf5 31bd 4e22 e23d
000003d0: 23bf 80be 1cd2 a3bd c5cb 213e 35f3 963e
000003e0: bb8a 0a3e eebf dbbe 4c32 a0bf a1ce a3bf
000003f0: 5d73 2c3e d31d 7b3d fdd0 4d3e 19af 973e

bias f4 [50]
7.838903 4.187426 9.347612 6.112407 11.721136 3.8017294 10.352851 6.117941
6.213538 9.406627 5.743479 6.0704865 10.9179735 6.404859 5.742325 5.9092073
9.158171 2.8426256 8.140944 5.2177505 10.512326 6.5668406 7.290717 6.291795
7.875278 10.253215 11.323312 3.3205075 11.226649 6.835057 9.727876 10.596239
7.7876954 6.88163 10.541777 5.4911714 7.8145967 8.137892 9.319818 5.8064413
4.0979023 10.832025 5.8196783 2.1820877 10.558255 10.453061 10.573603 11.054435
5.818203 7.3550725
00000000: 4bd8 fa40 65ff 8540 d28f 1541 d798 c340
00000010: c689 3b41 894f 7340 47a5 2541 2cc6 c340
00000020: 4ed5 c640 8b81 1641 94ca b740 6d41 c240
00000030: 05b0 2e41 9bf4 cc40 20c1 b740 3a18 bd40
00000040: de87 1241 94ed 3540 4e41 0241 d0f7 a640
00000050: 7d32 2841 8f23 d240 8e4d e940 6256 c940
00000060: 4702 fc40 2b0d 2441 492c 3541 3283 5440
00000070: 5ba0 3341 c9b8 da40 61a5 1b41 328a 2941
00000080: cd34 f940 5036 dc40 1eab 2841 adb7 af40
00000090: 2d11 fa40 ce34 0241 f91d 1541 5ece b940
000000a0: 0422 8340 f94f 2d41 ce3a ba40 53a7 0b40
000000b0: 9dee 2841 bd3f 2741 7a2d 2941 f7de 3041
000000c0: b82e ba40 c15c eb40

weight f4 [50]
32.59885 33.403492 32.967712 33.1827 32.936077 33.29456 32.56226 33.484074
33.18292 32.520885 33.266903 33.928764 32.656055 33.554756 33.376232 33.67874
32.438976 34.148106 32.851456 33.498043 32.472687 33.46098 33.35131 32.99852
33.095192 33.442234 32.818737 33.508606 32.488735 33.18156 33.361656 33.05437
33.112072 33.38813 32.340263 33.348087 32.969788 32.95269 33.019497 33.36811
33.648037 32.875423 33.9847 34.124863 32.405746 32.853096 33.074596 32.429115
33.265945 33.173283
00000000: 3965 0242 2d9d 0542 f0de 0342 16bb 0442
00000010: 8bbe 0342 a12d 0542 c13f 0242 b1ef 0542
00000020: 4fbb 0442 6315 0242 4f11 0542 0eb7 0742
00000030: cd9f 0242 1238 0642 4381 0542 08b7 0642
00000040: 83c1 0142 a997 0842 e467 0342 fffd 0542
00000050: 08e4 0142 0bd8 0542 be67 0542 7cfe 0342
00000060: 7a61 0442 d9c4 0542 6346 0342 d008 0642
00000070: 77f4 0142 ebb9 0442 5672 0542 ad37 0442
00000080: c372 0442 728d 0542 6e5c 0142 7164 0542
00000090: 10e1 0342 8ecf 0342 f713 0442 f278 0542
000000a0: 9797 0642 6f80 0342 55f0 0742 dc7f 0842
000000b0: 7c9f 0142 9269 0342 634c 0442 6ab7 0142
000000c0: 5410 0542 71b1 0442

bias f4 [50]
-60.821274 60.766605 -60.945683 60.817364 -60.736153 60.9136 -60.785027 60.920536
60.773304 -60.990696 60.766495 60.975243 -60.791096 60.90807 60.87232 60.896397
-60.93364 61.016827 -60.828533 60.844486 -60.977276 -60.815224 -60.93276 60.932926
-60.836193 -60.96494 -60.964436 60.791264 -60.822083 60.822117 -60.797726 -60.743137
-60.97166 -60.903893 -60.709232 61.005913 -60.969612 -60.800144 -60.729286 61.030968
60.90478 -60.828354 60.986496 60.773884 -60.795334 -60.792904 -60.885532 -60.880386
60.87341 61.081703
00000000: fc48 73c2 0111 7342 61c8 73c2 fb44 7342
00000010: d2f1 72c2 87a7 7342 de23 73c2 a1ae 7342
00000020: dd17 7342 79f6 73c2 e410 7342 a6e6 7342
00000030: 152a 73c2 dda1 7342 417d 7342 e995 7342
00000040: 0cbc 73c2 3b11 7442 6b50 73c2 c160 7342
00000050: bbe8 73c2 ca42 73c2 25bb 73c2 51bb 7342
00000060: 4358 73c2 19dc 73c2 95db 73c2 412a 7342
00000070: d049 73c2 d949 7342 df30 73c2 f9f8 72c2
00000080: fbe2 73c2 969d 73c2 41d6 72c2 0e06 7442
00000090: e2e0 73c2 5933 73c2 caea 72c2 b61f 7442
000000a0: 7f9e 7342 3c50 73c2 2cf2 7342 7518 7342
000000b0: 6c2e 73c2 ef2b 73c2 c98a 73c2 8485 73c2
000000c0: 5f7e 7342 aa53 7442

running_mean f4 [50]
8.527866 2.6847754 9.459159 4.896818 12.266856 2.3514187 11.389402 5.7789145
5.146318 9.686596 4.923832 4.7946396 12.107208 5.2400723 4.995657 4.8816094
9.9261 1.4670609 8.135763 4.004956 11.991627 5.3435497 6.0676246 6.211336
8.101752 10.331602 11.818737 1.3805734 11.222467 5.42048 10.453655 11.377458
6.677498 5.71977 11.685471 5.102952 9.298459 8.888067 9.631662 4.552935
2.6888752 11.951957 5.171689 0.6286859 11.66733 10.801462 11.691314 11.929167
4.1890426 7.101347
00000000: 2472 0841 5cd3 2b40 b758 1741 bcb2 9c40
00000010: 0b45 4441 a57d 1640 fe3a 3641 deec b840
00000020: a3ae a440 4cfc 1a41 0890 9d40 b06d 9940
00000030: 20b7 4141 acae a740 6cdc 9f40 2536 9c40
00000040: 4ed1 1e41 a7c8 bb3f 162c 0241 9928 8040
00000050: b4dd 3f41 5cfe aa40 fb29 c240 44c3 c640
00000060: c7a0 0141 3e4e 2541 8c19 3d41 a1b6 b03f
00000070: 3a8f 3341 9274 ad40 2c42 2741 110a 3641
00000080: 10ae d540 5b08 b740 b0f7 3a41 624b a340
00000090: 7dc6 1441 8635 0e41 4a1b 1a41 a5b1 9140
000000a0: 8816 2c40 373b 3f41 7a7e a540 8ff1 203f
000000b0: 62ad 3a41 cad2 2c41 9f0f 3b41 dedd 3e41
000000c0: a30c 8640 3c3e e340

running_var f4 [50]
9.316041 34.420013 6.773038 55.60471 3.650154 24.614725 3.5508213 34.814068
55.920063 5.955819 56.404095 30.28258 3.2700527 22.505064 55.062614 27.655722
11.8742075 16.301285 16.635916 47.950188 7.4100895 8.176518 9.727879 33.42162
6.6057544 5.5277214 6.8017993 10.670866 4.086243 46.708107 120.75715 3.3065512
8.218683 9.331868 5.929803 55.433178 34.126163 44.460712 6.315889 35.523952
31.976698 4.238568 50.787994 3.4416173 3.8467085 7.2187395 5.0006394 6.702525
38.61752 37.295734
00000000: 810e 1541 18ae 0942 babc d840 396b 5e42
00000010: 209c 6940 f5ea c441 a840 6340 9b41 0b42
00000020: 25ae 5f42 1296 be40 cb9d 6142 b942 f241
00000030: 8b48 5140 5f0a b441 1e40 5c42 eb3e dd41
00000040: c1fc 3d41 0869 8241 5b16 8541 fecc 3f42
00000050: 741f ed40 05d3 0241 64a5 1b41 bdaf 0542
00000060: 5762 d340 18e3 b040 57a8 d940 debb 2a41
00000070: 81c2 8240 1ad5 3a42 a983 f142 899e 5340
00000080: ba7f 0341 554f 1541 f2c0 bd40 93bb 5d42
00000090: 3181 0842 c5d7 3142 c31b ca40 8718 0e42
000000a0: 47d0 ff41 59a2 8740 e826 4b42 7543 5c40
000000b0: 7930 7640 eaff e640 3d05 a040 167b d640
000000c0: 5778 1a42 d52e 1542

weight f4 [1, 50]
-58.13194 58.119034 -58.021088 58.01878 -58.20321 58.012856 -58.150146 57.93882
58.12431 -57.969074 58.123196 58.014606 -58.156765 58.004795 58.06247 58.031136
-58.014713 58.001183 -58.139637 58.112156 -57.94667 -58.181664 -58.002758 57.957592
-58.147785 -58.02354 -57.977676 58.11522 -58.06466 58.10465 -58.133408 -58.15415
-58.05879 -58.10398 -58.172474 57.939205 -58.025154 -58.165455 -58.237762 57.932564
58.01112 -58.102028 57.975277 58.165714 -58.09883 -58.08803 -58.09403 -58.01442
58.043102 57.914192
00000000: 1b87 68c2 e479 6842 9815 68c2 3b13 6842
00000010: 16d0 68c2 2a0d 6842 c099 68c2 5ac1 6742
00000020: 4b7f 6842 55e0 67c2 277e 6842 f50e 6842
00000030: 87a0 68c2 e904 6842 f83f 6842 e21f 6842
00000040: 110f 68c2 3601 6842 fd8e 68c2 d972 6842
00000050: 64c9 67c2 06ba 68c2 d302 68c2 93d4 6742
00000060: 5597 68c2 1b18 68c2 24e9 67c2 fc75 6842
00000070: 3642 68c2 296b 6842 9c88 68c2 d99d 68c2
00000080: 333c 68c2 7a6a 68c2 9db0 68c2 bfc1 6742
00000090: c219 68c2 6da9 68c2 78f3 68c2 f2ba 6742
000000a0: 630b 6842 7a68 68c2 afe6 6742 b1a9 6842
000000b0: 3465 68c2 255a 68c2 4960 68c2 c40e 68c2
000000c0: 232c 6842 22a8 6742
